ML/Feature/model2.tflite (tflite, 2228 bytes, 4 tensors)

sequential/dense/BiasAdd/ReadVariableOp f4 [10]
00000000: ca8b a13b 49fa 8a3b c264 71ba 392d c7ba
00000010: d8c4 643b 6834 f2ba 0a6d 01bb 7368 1a3c
00000020: 1631 1fbc bd2e 8ebc
0.0049299942 0.004241262 -0.00092084345 -0.0015195973 0.0034907367 -0.0018478753 -0.001974883 0.009424317
-0.009716293 -0.01735627

sequential/dense/MatMul f4 [10, 1]
00000000: 35a0 25bd e530 053e 5423 bfbe 434c 053e
00000010: d84d 7f3e d6ee d63e 8cb0 30bf 2bba 2abf
00000020: e602 193d 20ca b4be
-0.04043599 0.13006933 -0.3733164 0.13017373 0.24932039 0.41979092 -0.6901939 -0.6669032
0.03735628 -0.3531046

sequential/dense_1/MatMul f4 [10, 10]
00000000: 1343 cfbe 013e e63d 8548 813d 5d55 023e
00000010: c468 de3e be42 e7bd 67f4 8c3e ae0d 943e
00000020: e695 f5bd 8c21 8cbe d365 d0bd de3c 893e
00000030: 890e 613e 5afe 0bbf 33f1 02be 9875 f83e
00000040: 0d18 e13e c83c 78be 7b76 323e 723f 843e
00000050: 6f06 06bd 33ab b53e 0c60 7ebe b40c 0ebe
00000060: 73d5 7fbd c76d aabe 19c3 a83e 8653 b0be
00000070: a852 edbd f411 e73e 2c01 3f3c 2cfe 5abe
00000080: 2ec2 ad3e 2a15 593e a737 7a3e 5ec5 9dbe
00000090: 779b a8b9 1683 fabe 7efa 5f3e 24d6 8d3e
000000a0: cab6 4dbe df11 04be 2c30 593e d2db 003e
000000b0: 843f ed3d bcc0 ddbe 5d34 fb3e 5da9 aebe
000000c0: c6e8 ee3e 0381 d93e 2873 c13e a2c0 7b3e
000000d0: b800 49be 233d cbbe 1f98 223e af8c d3be
000000e0: 1234 1c3e c97b 6ebe 9ef8 303e 3c2f 0b3f
000000f0: bd73 cfbe 76eb f5be 6743 b0be 0bb4 2a3e
00000100: c7fd 993e 5f7d a83e 9155 f13d 6ba1 813e
00000110: eb73 6e3e 81b7 023f 2bc5 8d3e 0ce2 033f
00000120: 27ee d3ba b49f b6be 21fa e13e 185e c5be
00000130: e27d 513e bd74 e33e d362 13be f75d a9be
00000140: d0c4 d83e 11c3 94be 5daa 103e 543c e1be
00000150: 0d88 61be 8cd7 d4be a119 10be 0832 febe
00000160: 122f 66be 2cdf f8be d2a0 9d3e a106 6d3c
00000170: a5b3 783e cb66 e33e b1aa 0a3f b955 ed3d
00000180: 291f f63e a9c5 7f3e 649c 6abc 37ee cebe
-0.4048086 0.11242295 0.0631266 0.12727876 0.43439305 -0.11292027 0.27530214 0.28916687
-0.119914815 -0.27369344 -0.101756714 0.2680425 0.21978201 -0.54684985 -0.12787323 0.48527217
0.43963662 -0.24241936 0.17428009 0.25829655 -0.03272098 0.35482177 -0.24841326 -0.13872033
-0.06245942 -0.33286878 0.32961348 -0.34438723 -0.11588031 0.45130885 0.011657994 -0.21386021
0.3393721 0.2119948 0.24435292 -0.30814642 -0.00032159287 -0.48928136 0.21872899 0.2770244
-0.2008926 -0.12897442 0.21209782 0.12583855 0.1158438 -0.43311107 0.49063388 -0.3411359
0.46661967 0.4248124 0.3778317 0.24585202 -0.1962918 -0.3969508 0.15878342 -0.4131827
0.15254238 -0.23289408 0.1728234 0.5436895 -0.4051799 -0.48031205 -0.34426424 0.16670243
0.3007643 0.3290815 0.117838986 0.25318465 0.23286407 0.51061255 0.2768949 0.51516795
-0.0016168997 -0.3566872 0.44136146 -0.3854835 0.20458177 0.44425002 -0.14393167 -0.33079502
0.42337656 -0.29055074 0.14127488 -0.4399134 -0.22024556 -0.415707 -0.14072277 -0.49647546
-0.22478893 -0.48607767 0.3078676 0.0144669125 0.24287279 0.44414362 0.54166704 0.11588616
0.48070648 0.24977745 -0.014319513 -0.40416119

sequential/dense_2/MatMul f4 [1, 10]
00000000: 76f7 393f e0a2 cabe 00cf b2bd 7f40 24bf
00000010: 8ab0 30bf 4cbf a5bd 01d4 a5be 2967 e23e
00000020: 524f 073f 9931 cb3e
0.7264322 -0.3957739 -0.08730888 -0.64160913 -0.6901938 -0.080931276 -0.3238831 0.4421933
0.5285541 0.39686278
