ML/Feature/Old model/model.tflite (tflite, 2228 bytes, 4 tensors)

sequential/dense/BiasAdd/ReadVariableOp f4 [10]
000000 1b 22 fa ba 26 44 94 3b a8 ff d0 bb 35 68 9d bb
       -0.001908365 0.0045247255 -0.006378133 -0.004803682
000010 bd 7a ee 3b 96 38 50 bc 22 79 67 3c 70 51 5a bb
       0.007277815 -0.012708804 0.014128001 -0.00333127
000020 b5 46 31 3b dd 3e de 3b
       0.0027050201 0.006782396

sequential/dense/MatMul f4 [10, 1]
000000 b3 1a 96 bd d0 e1 01 3f df 03 24 3f 8c bc 17 bd
       -0.07329311 0.5073519 0.64068407 -0.037045047
000010 f0 96 fc 3e 9d c5 9f 3e 58 64 8f 3e 32 b6 18 3f
       0.49333906 0.31205454 0.28006244 0.5965301
000020 3d 35 0e bf cd 60 49 3e
       -0.55549985 0.19665833

sequential/dense_1/MatMul f4 [10, 10]
000000 22 33 17 be 12 45 09 be 56 a3 2b be 8c e9 ab 3e
       -0.147656 -0.13405254 -0.16761526 0.3357662
000010 ad 65 00 bf 5a 88 ac 3e 3e 1b a0 be ba a2 d1 be
       -0.50155145 0.33697778 -0.31270784 -0.40944463
000020 0f 37 10 3e b2 01 ba 3e 4e 05 f0 3c 54 61 b9 be
       0.14083503 0.36329418 0.029299404 -0.36207068
000030 51 e6 fe be 07 05 9c 3e 73 f7 d2 3c ca 02 84 3e
       -0.49785092 0.30472586 0.025752759 0.25783378
000040 a6 63 d5 bc a3 64 29 3e 62 8b de 3d f2 4e 09 3e
       -0.026048493 0.16542296 0.10866429 0.13409021
000050 63 cf bb 3e 32 0f 85 3e a6 e0 88 be 49 51 c7 bc
       0.3668166 0.25988156 -0.26733893 -0.024330752
000060 82 ae 2b 3c 56 d9 9a be 14 27 e4 3e cb cf 72 be
       0.010478618 -0.3024394 0.44561064 -0.23712079
000070 11 10 00 3f 03 32 75 bd 8f 41 10 3e 6b 11 fc 3e
       0.50024515 -0.059862148 0.14087509 0.4923204
000080 ac f1 4d 3d a8 fc 0b 3e 7a 7f 05 3f 74 df 3f be
       0.050279304 0.136706 0.5214764 -0.18737584
000090 7f d1 d6 3e 6d 0e 92 be 27 53 00 3e 0f 63 a5 3e
       0.41956708 -0.2852663 0.1253172 0.32302138
0000a0 ee 49 fe be 3a f7 e8 bd 10 29 9e be d0 0c 09 3f
       -0.4966578 -0.1137528 -0.30890703 0.53535175
0000b0 2e 9e 2b 3d d5 6b 88 be 78 6b 4b bd 21 68 87 3e
       0.0418989 -0.2664477 -0.049663037 0.26446632
0000c0 64 fc 8c 3e b5 a4 d6 3d 4c bf 36 3e 74 16 50 be
       0.2753631 0.10480634 0.17846411 -0.20321065
0000d0 61 f1 92 3e 9d c9 aa be 6d e1 d6 3e a8 e8 da be
       0.28699782 -0.33356944 0.4196886 -0.42755628
0000e0 fd a5 91 3e c5 3f 8b 3e 37 3b e9 be ee e8 d7 3e
       0.28446952 0.2719709 -0.4555299 0.421699
0000f0 f2 8e f9 be a0 4d 5f 3d cf 8e 01 bf 3f bc f9 be
       -0.4874187 0.05451739 -0.50608534 -0.48776433
000100 ca 38 1c be f2 05 51 be b5 b2 b3 be 02 04 dc be
       -0.15256038 -0.20412424 -0.3509728 -0.42971808
000110 8b 54 a2 3e 02 03 9c 3d 13 49 07 bf 26 c9 83 3e
       0.31705126 0.07617761 -0.5284588 0.25739402
000120 d4 5a 3f be 5c 74 57 be 95 ec a6 3e 3d 60 d6 3e
       -0.18686992 -0.21040481 0.32602373 0.418703
000130 08 a0 d7 3e 57 ee e1 be a9 19 fa 3e 8a ec 18 3e
       0.42114282 -0.4412715 0.48847702 0.14933982
000140 1d ca 5c 3e b0 96 4f be 6d a9 07 3f c8 05 0c 3f
       0.21561475 -0.20272326 0.529929 0.5469632
000150 37 5b a7 3e a6 d5 0d 3e c8 7b 97 3e 6d 17 ff be
       0.3268678 0.13851032 0.29586625 -0.4982256
000160 cb 84 c3 3e f5 06 d7 be 8a 0a 66 be 82 82 c7 be
       0.3818725 -0.41997495 -0.22464958 -0.38966757
000170 a5 c2 ff be 0b 9b 94 3e 45 ac e4 3e 59 b3 05 bf
       -0.4995319 0.29024538 0.4466268 -0.5222679
000180 59 e2 03 3f 10 3c 00 3f d0 f7 70 bd 86 af cd be
       0.51517254 0.5009165 -0.058830082 -0.40172976

sequential/dense_2/MatMul f4 [1, 10]
000000 87 03 25 3f 03 9b 30 bf b1 8c 32 3f 64 db d7 3e
       0.6445851 -0.6898653 0.6974593 0.4215957
000010 93 0a 8e bd e5 8f 31 3f 62 59 59 3d 28 84 cb 3e
       -0.069356106 0.6936019 0.053063758 0.39749265
000020 79 ac ae be 24 4f 36 3f
       -0.3411596 0.7121451
